…
found previously built it vocab, loading...
there are 7426 tokens in it vocab
building en vocab...
found previously built en vocab, loading...
there are 6141 tokens in en vocab
building translation valid it->en dataset...
found preprocessed valid it->en dataset, loading...
taking 5000 subset of full data...
truncating all sequences to have max 50 tokens...
model summary: 
=================================================================
                Kernel Shape     Output Shape   Params  Mult-Adds
Layer                                                            
0_src_embedding  [512, 7426]   [128, 50, 512]  3802112    3802112
1_enc                      -   [128, 50, 587]  4009797    4002753
2_tgt_embedding  [512, 6141]   [128, 50, 512]  3144192    3144192
3_dec                      -   [128, 50, 587]  4009797    4002753
4_mlp            [587, 6141]  [128, 50, 6141]  3610908    3604767
-----------------------------------------------------------------
                        Totals
Total params          18576806
Trainable params      18576806
Non-trainable params         0
Mult-Adds             18556577
=================================================================
rnn:  gru
num layers: 2
embedding dim:  512
data:  iwslt_it_en
max seq tokens:  50
train subset:  25000
…
