…
found previously built de vocab, loading...
there are 6702 tokens in de vocab
building it vocab...
found previously built it vocab, loading...
there are 7447 tokens in it vocab
building translation valid de->it dataset...
found preprocessed valid de->it dataset, loading...
taking 5000 subset of full data...
truncating all sequences to have max 50 tokens...
model summary: 
=================================================================
                Kernel Shape     Output Shape   Params  Mult-Adds
Layer                                                            
0_src_embedding  [512, 6702]   [128, 50, 512]  3431424    3431424
1_enc                      -   [128, 50, 587]  4009797    4002753
2_tgt_embedding  [512, 7447]   [128, 50, 512]  3812864    3812864
3_dec                      -   [128, 50, 587]  4009797    4002753
4_mlp            [587, 7447]  [128, 50, 7447]  4378836    4371389
-----------------------------------------------------------------
                        Totals
Total params          19642718
Trainable params      19642718
Non-trainable params         0
Mult-Adds             19621183
=================================================================
rnn:  gru
num layers: 2
embedding dim:  512
data:  iwslt_de_it
max seq tokens:  50
train subset:  25000
…
